GANs Model/models/classifier.pth (torch, 113259 bytes, 1 tensors)

model.weight f4 [439, 64]
000000 f8 e0 52 bd 3a 08 76 3d 91 73 35 3d 0f 74 e3 bc
       -0.05148408 0.06006644 0.044299666 -0.027765302
000010 37 82 ef 3d cb f5 f9 bd 71 ff 06 ba 83 df 32 bd
       0.116947584 -0.122050844 -0.0005149758 -0.04367019
000020 13 6a 47 bd d6 e4 9c bd 16 a3 f9 3d 11 ea 10 3e
       -0.048685145 -0.076608345 0.12189309 0.14151789
000030 6d 69 8f 3d 96 22 31 bd 57 8c fe bd a3 1a 08 3e
       0.0700253 -0.043245874 -0.124291115 0.13291411
000040 98 e4 b9 bc 08 cd 85 bd 19 90 37 bd 0f 7d cb bd
       -0.02269201 -0.06533247 -0.044815157 -0.099359624
000050 e2 c5 14 3e cc d1 a2 3a c7 ba a6 3d 95 fe 02 3e
       0.14528611 0.0012422143 0.08141094 0.12792428
000060 17 10 08 3e c5 a2 a1 3d 3c c8 4b bd 86 4d 82 3d
       0.13287388 0.07892374 -0.049751505 0.06362443
000070 5f 97 63 3d ab 17 93 bb 65 88 99 3c cb 9c 63 bd
       0.05556428 -0.0044889054 0.018741796 -0.05556945
000080 55 b5 45 3d af f6 65 3b ce d0 49 bd 96 9f 14 be
       0.048268635 0.0035089662 -0.049271397 -0.14514002
000090 00 4c d5 3c 28 79 ee bd df 9f 84 bd 89 0d a2 3d
       0.026037216 -0.116442025 -0.064758055 0.07912738
0000a0 1c f3 1a be d0 e3 11 bd 8d 26 18 3d 59 02 f4 3c
       -0.15131801 -0.03561765 0.03714614 0.029786276
0000b0 61 a6 28 bd 26 38 86 3d 84 46 a7 bd 04 64 21 3d
       -0.041174296 0.06553678 -0.08167747 0.039402023
0000c0 1c eb 42 bd 08 64 93 3c d7 5a 99 3d 8a fa 00 bd
       -0.0475875 0.017992035 0.074880295 -0.031488933
0000d0 e0 0c 16 3d 55 73 18 bd 4a d9 d6 3d b3 e5 e7 3c
       0.036633372 -0.037219364 0.10490663 0.028307771
0000e0 66 41 71 3d be 65 7c 3c 87 b6 22 3d 4c 81 b3 bd
       0.05890026 0.015405117 0.039724853 -0.08764896
0000f0 b7 79 af bd b3 e3 21 3e 76 27 6e 3c 2f a7 f8 3c
       -0.08568137 0.15809517 0.014535775 0.030353157
000100 de e1 46 bd 93 68 c9 bb 7a 56 c8 3d 39 47 7b 3d
       -0.048555247 -0.0061464994 0.09782119 0.06134722
000110 ed 7b 16 3e 67 93 a5 bd 30 ff 56 3d 20 85 08 bd
       0.14695711 -0.080847554 0.05248946 -0.033330083
000120 60 27 89 bd 15 1a 3c 3c f6 c4 1b 3e 2e 47 71 bd
       -0.06696963 0.011480828 0.15211853 -0.058905773
000130 66 27 a6 bc 2f 32 06 3d 50 1c df bc 71 f4 3f 3e
       -0.020282459 0.032762703 -0.02723518 0.18745591
000140 e4 f8 3e 3c 56 de 96 bd db 8d 76 bd 13 f1 d3 bd
       0.01165602 -0.07366626 -0.060193878 -0.10348716
000150 9e 03 66 3e 14 3c b1 bd 15 94 4a 3c 54 b6 59 3d
       0.22462317 -0.08654037 0.012364407 0.053152397
000160 72 d7 0e 3d 17 f4 d1 3d f3 ee 96 bd c0 da 47 3d
       0.034873433 0.102516346 -0.07369795 0.0487926
000170 87 6d 7a bd cd a2 13 3d 19 ea 49 3d 65 0e a4 bc
       -0.06113961 0.03604393 0.04929552 -0.020026395
000180 30 4e a1 3d 02 d7 90 ba 61 4b 43 3e fe 03 cc bc
       0.07876241 -0.0011050405 0.19071724 -0.024904247
000190 46 b0 d4 3c fa c2 dd bd a8 35 d8 bb 54 fb ad 3d
       0.02596296 -0.108282045 -0.006598193 0.08495203
0001a0 79 24 29 bd 22 c9 a0 3d 63 d4 6b 3d 85 1c 11 bc
       -0.04129455 0.07850863 0.057575595 -0.008856897
0001b0 f5 a0 c7 ba 9e bd a3 3c 52 57 13 be a3 95 fe 3d
       -0.0015230464 0.019987877 -0.14388779 0.12430885
0001c0 e3 a2 01 3d 48 41 9f 3d 4c d3 27 3d 08 d0 4a bd
       0.03164948 0.07776123 0.040972993 -0.0495148
0001d0 43 1e f3 bc ee 42 40 bd 62 c8 03 3e f1 9a 9c bc
       -0.029677516 -0.04693883 0.12869409 -0.01911685
0001e0 3c 82 9e bc f0 40 25 bd 8a 8b f7 bc d1 cb 86 bd
       -0.01934921 -0.040345132 -0.030217905 -0.06581844
0001f0 ac 41 28 3d cd 22 a7 3d ba 3c b0 bd 34 a3 b8 3d
       0.041078255 0.081609346 -0.08605333 0.090155035
000200 19 26 12 bb bf 86 48 bd 57 32 9c 3d 79 8e 95 bd
       -0.002230054 -0.04895663 0.07626789 -0.07302565
000210 93 6e b5 3d 5a 43 20 bd 67 8b 1a 3c 28 99 00 bd
       0.08858981 -0.03912673 0.00943265 -0.03139606
000220 18 15 06 be f9 3c 2d bd d3 f6 68 3d 40 04 23 3c
       -0.13093984 -0.042294476 0.056876015 0.009949744
000230 0e ab 85 bc 27 37 b8 3d a4 91 1c be cf 70 03 3e
       -0.016316917 0.089948945 -0.15289932 0.12836002
000240 28 7b 90 3c e5 95 0a bd 15 c4 9e 3b 3c 48 07 be
       0.01763685 -0.033834357 0.004845152 -0.13211149
000250 84 e5 02 3e b7 d0 03 3c 99 54 af 3d 74 3b c8 bc
       0.12782866 0.008045367 0.085610576 -0.024442412
000260 f7 c5 5f 3b 2e 1e e3 3d 1d 1d 02 be b4 a3 80 3d
       0.0034145096 0.11089741 -0.12706418 0.06281224
000270 c9 d9 cf 3c cd 60 0d 3d 1b 2e 38 bc 3b 25 a1 3c
       0.025372403 0.034516145 -0.011241461 0.019671073
000280 27 8d bd 3d 6b 99 46 3d 39 1b 20 bd 86 2a 85 bc
       0.09255438 0.048486155 -0.03908846 -0.016255628
000290 24 d5 fb 3c 66 07 02 be 4e a7 16 be c3 38 06 3e
       0.030741282 -0.12698135 -0.14712259 0.1310759
0002a0 a7 64 3b be 91 9c a8 3d cc 92 07 3e 54 16 42 bd
       -0.18300115 0.08232988 0.13239592 -0.047384575
0002b0 af 6e c6 3c 8c ea 81 bb 67 79 f9 bd 0c 9c 4d 3d
       0.0242227 -0.0039647277 -0.12181359 0.050197646
0002c0 52 15 f5 3c 16 b5 82 3d 7a 7f 93 3d b8 3a 6f bd
       0.029917393 0.06382196 0.072020486 -0.058405608
0002d0 78 94 6a bd ba 73 03 3d f9 46 91 3d f5 c1 87 3d
       -0.057270497 0.032092787 0.07093615 0.06628791
0002e0 ff 57 33 3e c9 e6 11 be 07 5d ae 3d 6f cb 53 bd
       0.17514037 -0.14248194 0.08513837 -0.05170768
0002f0 b2 7f 92 bc b0 ed 92 bb 5c 83 98 bd 73 e4 e9 3d
       -0.017883155 -0.004483901 -0.0744693 0.11420526
000300 9b 45 18 3c 8e 0f eb 3b c2 35 a3 3b 3a d0 97 bd
       0.009293939 0.007173485 0.0049807737 -0.07412763
000310 56 0f 5c 3c aa a3 71 bc db f4 64 3d a7 5a b3 bd
       0.013431391 -0.014748493 0.055897575 -0.08757525
000320 a2 a3 af bd 37 74 23 bd 86 c0 0e 3e 6b 99 d9 3c
       -0.08576132 -0.039905753 0.1394063 0.026562413
000330 72 ad 9c 3c 1c e8 df bc 4e 0f 37 be fe b0 b9 3d
       0.019125674 -0.027332358 -0.17876932 0.09066962
000340 56 99 0e 3d 00 90 cb bc 7c a9 6b b8 7a f0 12 bc
       0.0348142 -0.024848938 -5.618621e-05 -0.008968467
000350 64 43 19 3e a3 cd 62 bd 14 4c a1 3d 1c 2a 34 3d
       0.14967114 -0.05537189 0.07875839 0.04398547
000360 4f 04 0b 3d e4 55 35 3e 94 13 1b be 5e e7 ac bc
       0.033939656 0.17708546 -0.15144187 -0.021106418
000370 1c 1d ad 3c 14 7b f7 bd 73 c6 2f 3d bd 48 01 3c
       0.021132044 -0.12084022 0.042913865 0.007890877
000380 86 e2 44 3d 58 07 20 bc 23 e3 21 3b 63 45 db 3c
       0.048067592 -0.009767376 0.0024702034 0.026766485
000390 ee 94 ad 3d b8 e4 e9 bd 00 5c e5 bd 37 f9 16 3e
       0.08475672 -0.11420578 -0.11199188 0.14743505
0003a0 34 3f b6 bd 03 ff c8 3d 63 74 79 bc e7 d6 35 bd
       -0.08898774 0.098142646 -0.015225503 -0.0443944
0003b0 a9 57 45 bd 62 93 82 3d 14 30 e8 bd 90 ee b5 bc
       -0.048179302 0.06375767 -0.11337295 -0.022208482
0003c0 f0 74 3b 3d 3d d3 5f 3d 1f 75 be 3d 84 9d 8d 3c
       0.045765817 0.054644812 0.09299683 0.017287023
0003d0 2a 62 df bc f4 c8 ab bb ab a3 5a 3e e1 27 e5 3c
       -0.027268488 -0.0052424613 0.21351497 0.027973117
0003e0 a5 7b 12 3e 76 3d 75 bd 5d f1 74 3d 43 a0 4a 3d
       0.14304979 -0.059873067 0.059800494 0.049469244
0003f0 40 c7 45 bd 18 5c 59 3d 71 0f 6f 3c de 61 e0 3d
       -0.048285723 0.053066343 0.014591084 0.10956167
