GANs Model/models/discriminator.pth (torch, 1131 bytes, 1 tensors)

model.weight f4 [1, 64]
000000 ae c3 b5 bb e5 e4 ca 39 13 cb 8f bb fb a8 0f 3c
       -0.0055470085 0.00038698982 -0.004388222 0.008768315
000010 53 77 ea bb cd dc cc 38 cc 92 4d 3a ab 36 a2 39
       -0.007155338 9.7686054e-05 0.0007842004 0.0003093978
000020 6b ef 97 ba 74 73 8f 3a 13 1a 0a bc d9 46 92 bb
       -0.0011591738 0.0010944442 -0.008429068 -0.004464012
000030 24 0e dd 3b a2 77 cf 3b 24 1a 21 ba dc c4 ff 3a
       0.0067460705 0.0063314 -0.0006145558 0.0019513625
000040 56 f6 97 bb c4 4d bd bb 61 a2 72 3b cc 34 8e 3b
       -0.00463752 -0.0057770927 0.0037023055 0.00433979
000050 8b fd ac bb 61 eb 6e bb 2e 46 79 bc 7e b5 88 3b
       -0.005279248 -0.0036456215 -0.015214486 0.004172026
000060 38 79 fe b9 58 43 ed bc e8 50 06 3a 9a ef 8a bb
       -0.0004853697 -0.028962776 0.00051237503 -0.0042399885
000070 82 9b a1 3b ef 23 dc bb c3 cb af 39 59 9a 07 3b
       0.004931868 -0.006718151 0.00033530415 0.0020691364
000080 d6 9f 86 b9 16 c4 91 3b fe 42 d2 bc 10 17 74 3c
       -0.0002567756 0.004448424 -0.02566671 0.014898077
000090 78 dc d4 bb 06 78 d9 3c eb 27 42 3b 22 2c 9b 3a
       -0.0064960085 0.02654649 0.0029625844 0.0011838714
0000a0 9a cd e2 ba 61 79 54 3b f6 5a be 3a 87 33 e9 3b
       -0.0017303706 0.003242098 0.0014522958 0.0071167382
0000b0 f4 52 9a 3b 59 ca f5 3b dc 8c dc 3b da 88 e6 bb
       0.004709596 0.0075009284 0.006730659 -0.007035357
0000c0 4c 31 ea ba 08 2b 05 3b 09 03 3c b9 80 6d 51 3b
       -0.0017867475 0.0020319838 -0.00017930208 0.0031956136
0000d0 96 73 d2 3a fa f4 d2 bb 90 30 1c bb 6e 6e 06 bc
       0.0016056176 -0.006437895 -0.0023832656 -0.008205039
0000e0 eb 5f 5a bc 19 cf e6 39 c9 af c1 3b ae c7 a9 bb
       -0.013328533 0.00044023318 0.005910848 -0.0051812744
0000f0 87 71 d2 3b f7 ea fe bb 6f 1e 80 bb be 29 9d bb
       0.006422225 -0.007779475 -0.003909878 -0.004796236
